model/model.pth (torch, 16787 bytes, 4 tensors)

linear1.weight f4 [256, 11]
-0.008037859 0.1842943 -0.2841579 -0.08708437 0.2232952 -0.2884673 -0.14716521 -0.08770953
-0.14143324 0.26528716 0.17587893 -0.16962242 -0.2956732 -0.068769135 -0.23450579 -0.2492022
-0.023026193 0.0074485503 -0.07586716 0.2125048 0.19562516 -0.17120905 0.31871158 -0.26520598
-0.09269327 -0.22641328 -0.09539691 0.19210537 0.20570828 -0.0797325 -0.13546902 -0.07359123
-0.037115313 0.20956305 -0.35036644 -0.0582505 0.08252423 -0.071226664 0.0039408784 0.09429117
0.3270964 0.17775455 0.023850936 0.05767645 -0.05842054 0.1724443 -0.0935107 0.22521149
0.009656471 -0.18942676 -0.2179976 0.38519907 -0.048540697 0.27513027 0.26356453 0.41581133
-0.16174099 0.37778988 -0.14188443 -0.25859517 0.1251048 0.19216023 0.31040135 0.009587894
-0.13147281 -0.06946985 -0.35242873 -0.07611614 0.09792811 -0.12131145 0.08133335 0.10462718
-0.22009225 -0.123664565 0.07092886 0.22918709 -0.0782321 -0.26830712 0.27225313 -0.015240448
-0.20710444 0.13715672 -0.1439749 -0.08550317 0.30042696 0.061987244 -0.0880395 0.10303408
-0.17301916 0.3856701 0.128414 -0.22744974 -0.07623981 -0.2390167 -0.23700888 0.16935791
0.07879594 0.23147048 0.21716978 0.15128736 -0.30942735 0.27050716 0.20850444 -0.045136027
-0.30622357 -0.16640459 -0.030787038 0.24253342 -0.009175351 0.22522555 -0.044612896 0.19560857
0.08999027 0.28778142 0.18982702 0.18991847 -0.075002566 0.34680974 -0.0014429142 0.28156808
0.07055783 -0.15787077 -0.18435024 0.14135234 -0.18562813 -0.16131948 0.09396123 0.17853951
-0.11895539 0.026713487 -0.05163271 -0.24993128 -0.14232492 0.16101314 0.1595292 0.19993524
0.15080008 0.09588535 0.23016304 -0.20870633 -0.26924768 -0.22808278 0.038672972 0.1579622
0.22825181 -0.24892336 0.07207889 -0.23808904 0.049229234 -0.23174584 -0.30921948 -0.2095503
-0.26685846 -0.01010751 0.049558487 0.26293328 -0.07002124 -0.16888428 0.26481026 -0.27752218
0.060221497 0.31270924 0.048331108 -0.109141335 -0.24599503 0.048006725 0.21906458 0.1536744
0.23900566 0.23763254 -0.20622815 0.1522543 -0.2131969 -0.22254643 0.24706204 0.084395155
-0.22681499 0.20945163 0.19059615 0.2687574 -0.2066757 0.025106622 0.092298016 0.10497176
-0.3201127 -0.31295523 0.20320827 0.2731979 0.3644024 0.014167589 -0.16156042 -0.13393705
0.09563129 0.16159983 -0.12552132 0.15763031 0.007632987 0.012404701 -0.2901279 0.30993
-0.23385504 -0.30050728 -0.21456845 0.27905685 0.09302647 -0.23540834 -0.21237113 -0.12948196
-0.2437314 -0.16205221 0.29331332 -0.06520209 -0.11006189 0.18982549 0.12039857 0.27264997
0.4813085 0.13710955 0.10436395 0.2709335 -0.06824884 0.05736321 0.06475678 0.013180264
0.19249186 -0.08416251 -0.29592305 -0.1327488 -0.24878758 0.16869931 0.22896054 -0.07509564
-0.3157691 -0.010279011 0.3826813 0.021131681 0.04821111 0.21409069 0.05483047 0.02234413
0.20485115 -0.1842175 -0.040619995 0.3363193 0.20856827 -0.043714914 0.37346727 0.19718868
0.28115603 -0.048290662 0.22291599 0.17344217 -0.18451983 -0.17856438 0.25851935 -0.061284907
00000000: 39b1 03bc a5b7 3c3e 257d 91be 4a59 b2bd
00000010: 7fa7 643e fcb1 93be 7ab2 16be 0ea1 b3bd
00000020: e0d3 10be b8d3 873e 9b19 343e 80b1 2dbe
00000030: 7a62 97be d5d6 8cbd 4922 70be dd2e 7fbe
00000040: 6da1 bcbc f812 f43b 3e60 9bbd dc9a 593e
00000050: f651 483e 6d51 2fbe 2a2e a33e 14c9 87be
00000060: f8d5 bdbd e2d8 67be 755f c3bd 45b7 443e
00000070: 31a5 523e cb4a a3bd 64b8 0abe 00b7 96bd
00000080: 3a06 18bd b297 563e 3b63 b3be 1498 6ebd
00000090: 7702 a93d 49df 91bd 7c22 813b bb1b c13d
000000a0: 2e79 a73e 4a05 363e 0a63 c33c 243e 6c3d
000000b0: 604a 6fbd 3d95 303e 8a82 bfbd d79d 663e
000000c0: 2d36 1e3c 17f9 41be c33a 5fbe d038 c53e
000000d0: 9cd2 46bd e0dd 8c3e eef1 863e 39e5 d43e
000000e0: 6e9f 25be ad6d c13e 274a 11be 9666 84be
000000f0: 791b 003e a7c5 443e edec 9e3e 8b16 1d3c
00000100: cfa0 06be 3546 8ebd 8a71 b4be c7e2 9bbd
00000110: 888e c83d 2372 f8bd 1992 a63d c646 d63d
00000120: dd5f 61be d943 fdbd 2643 913d 05b0 6a3e
00000130: 2738 a0bd 8d5f 89be c364 8b3e 12b3 79bc
00000140: 3013 54be d072 0c3e 286e 13be 491c afbd
00000150: 90d1 993e 56e6 7d3d 0e4e b4bd 8803 d33d
00000160: ef2b 31be 8d76 c53e f67e 033e 96e8 68be
00000170: 9e23 9cbd cbc0 74be 75b2 72be 296c 2d3e
00000180: c45f a13d 9906 6d3e c161 5e3e 13eb 1a3e
00000190: 436d 9ebe ea7f 8a3e 3082 553e 8ee0 38bd
000001a0: 56c9 9cbe f765 2abe 1935 fcbc ae5a 783e
000001b0: 3654 16bc 87a1 663e 03bc 36bd 9d4d 483e
000001c0: d24c b83d 1658 933e 0462 423e fd79 423e
000001d0: f29a 99bd 0c91 b13e 2b20 bdba b129 903e
000001e0: a080 903d e0a8 21be 4fc6 3cbe abbe 103e
000001f0: 4d15 3ebe ef30 25be bf6e c03d 10d3 363e
00000200: e29e f3bd 3ed6 da3c d27c 53bd fced 7fbe
00000210: a0bd 11be a1e0 243e 9f5b 233e d3bb 4c3e
00000220: 566b 1a3e 8a5f c43d dcaf 6b3e 1db7 55be
00000230: d5da 89be 888e 69be 8d67 1e3d d8c0 213e
00000240: d8ba 693e c4e5 7ebe 199e 933d 9dcd 73be
00000250: 98a4 493d c84e 6dbe 0452 9ebe 5b94 56be
00000260: aca1 88be f899 25bc d7fd 4a3d 319f 863e
00000270: 4c67 8fbd 00f0 2cbe 3695 873e 6317 8ebe
00000280: d1aa 763d 6d1b a03e d7f6 453d 7e85 dfbd
00000290: 1fe6 7bbe b3a2 443d 7752 603e d25c 1d3e
000002a0: e6bd 743e f255 733e 792d 53be 8de8 1b3e
000002b0: 4a50 5abe 36e3 63be d5fd 7c3e 5ed7 ac3d
000002c0: 3042 68be 7d7a 563e a32b 433e 929a 893e
000002d0: cba2 53be 67ac cd3c be06 bd3d 6ffb d63d
000002e0: d0e5 a3be ab3b a0be d415 503e 98e0 8b3e
000002f0: f492 ba3e 2d1f 683c 1870 25be cb26 09be
00000300: 56da c33d 6d7a 253e a988 00be d769 213e
00000310: 231e fa3b 163d 4b3c a58b 94be 25af 9e3e
00000320: b277 6fbe 17dc 99be d5b7 5bbe 8ae0 8e3e
00000330: a984 be3d e20e 71be d177 59be eb96 04be
00000340: b994 79be 04f1 25be 2a2d 963e ac88 85bd
00000350: 2168 e1bd 9d61 423e 8793 f63d c798 8b3e
00000360: 116e f63e 7266 0c3e c4bc d53d ccb7 8a3e
00000370: 0cc6 8bbd aff5 6a3d 349f 843d 09f2 573c
00000380: 961c 453e 655d acbd 3a83 97be 4def 07be
00000390: 2cc2 7ebe 83bf 2c3e a274 6a3e becb 99bd
000003a0: 7dac a1be 4c69 28bc ceee c33e 591c ad3c
000003b0: 0379 453d 973a 5b3e ea95 603d 090b b73c
000003c0: 80c4 513e 83a3 3cbe 2761 26bd 0b32 ac3e
000003d0: ec92 553e 690e 33bd 1a37 bf3e d4eb 493e
000003e0: aff3 8f3e 6ecc 45bd 1744 643e d39a 313e
000003f0: c4f2 3cbe 95d9 36be a65c 843e e205 7bbd

linear1.bias f4 [256]
-0.15484606 -0.20804812 -0.019460464 -0.10609692 -0.00815467 0.2354116 0.22148657 -0.067625806
-0.21067707 -0.25124443 0.08738285 0.07441118 -0.11779384 0.22921337 0.01585202 -0.03690821
-0.15462975 0.21005028 0.25509715 0.33716756 0.053214293 -0.1040437 0.12604514 0.08877542
-0.2200447 -0.3270474 -0.0078937635 0.15627758 -0.023720168 -0.17709155 0.25684214 0.13381852
0.12768741 -0.09456589 -0.17972584 0.10146188 -0.07445022 0.14171991 0.34836742 -0.11924393
0.16833775 -0.2119697 -0.28770825 0.29750878 -0.11592764 0.24256562 0.25879005 0.01877824
-0.18449211 0.3734115 0.27381143 0.07894068 -0.19707716 -0.26204252 -0.16523148 -0.22951691
0.02990215 0.06395804 -0.25654215 -0.09094004 0.3614643 -0.18794428 -0.040192407 -0.21308088
0.07589386 -0.098794 0.26124004 -0.24302815 0.23411143 0.27951503 -0.17554358 0.24667725
-0.010563196 0.0013570967 -0.09435567 -0.11750145 0.038817637 -0.1353782 -0.019340621 0.076478034
0.12907118 0.15279518 -0.19195569 0.026364505 0.17281853 0.05386526 0.37925017 0.33498165
0.007571889 -0.009795449 0.029778566 0.0034387766 0.24780102 0.1709263 0.08086404 -0.08758675
0.17409141 -0.27840343 0.30356044 0.32439333 -0.2439292 0.20195448 0.060530085 -0.1379111
-0.19265392 0.081753775 -0.023106983 -0.119002044 0.093839064 -0.17025113 0.0835485 -0.23719223
0.37880796 0.18445174 0.012040734 -0.06451989 -0.3270945 -0.11537878 0.09507265 -0.08120026
-0.16073775 -0.17982489 0.27794307 0.03209928 -0.27330992 -0.15951583 -0.2832462 0.32821742
-0.027706252 0.1567876 0.12413377 0.2692321 -0.22660115 0.019971194 -0.30759692 0.17856632
0.08011194 -0.08935094 0.061260227 0.2110006 0.11952348 -0.20035161 0.18518093 -0.07008217
0.33773816 -0.0025757493 -0.1990783 0.088185236 -0.062153455 0.21703194 -0.15003552 0.2715067
-0.018945636 0.0022375926 0.062453475 -0.17379102 0.16792637 -0.05406794 -0.08402934 -0.13804376
-0.042331472 0.05586263 -0.2205833 0.3506872 0.32662818 0.08756759 -0.07119678 0.31362808
-0.33170852 0.015492995 0.13595656 0.18891674 -0.18412805 -0.30273476 -0.124628834 0.34255788
-0.17666307 0.24670456 0.35608858 -0.079296865 0.065498985 -0.21222186 -0.19314422 0.049581796
-0.052019633 -0.27498075 0.025561087 -0.12393875 0.003716829 0.024205413 -0.16508782 0.180521
0.18161584 0.38156855 0.022725042 0.1742243 0.030880315 -0.096908465 0.32061726 -0.37619558
0.08831777 0.04232645 0.0087796245 0.18122105 0.010264287 -0.08621602 0.050421406 0.37769932
-0.009648273 0.23279083 -0.04382237 0.24241278 0.1431927 -0.069797516 0.34431207 0.014162856
-0.07526606 -0.026280003 0.16701566 0.06740121 0.29401964 0.2179607 -0.19116202 0.086174294
0.17347215 -0.19990976 -0.23975985 0.20900027 0.3417799 -0.172162 0.23857339 0.1536215
0.13060495 -0.06198543 0.29476413 -0.059808202 -0.31146452 0.2807311 0.3226613 -0.18559566
0.097019464 -0.07500299 0.026603064 -0.0076885545 0.21059144 0.36409122 -0.18664712 -0.070099495
0.27424896 0.25286007 0.24105987 0.131949 0.04317733 0.26701903 0.1855337 0.09794285
00000000: f78f 1ebe 910a 55be 8d6b 9fbc 5849 d9bd
00000010: 2a9b 05bc bd0f 713e 60cd 623e 667f 8abd
00000020: bbbb 57be 1ca3 80be c8f5 b23d e464 983d
00000030: e63d f1bd e9b6 6a3e 18dc 813c 102d 17bd
00000040: 4357 1ebe 6c17 573e 189c 823e 3aa1 ac3e
00000050: 3bf7 593d dd14 d5bd fa11 013e e3cf b53d
00000060: 6653 61be c272 a7be d854 01bc 3b07 203e
00000070: cc50 c2bc 7d57 35be d080 833e b907 093e
00000080: 7dc0 023e c3ab c1bd 0d0a 38be 3fcb cf3d
00000090: 5b79 98bd 061f 113e 375d b23e 2936 f4bd
000000a0: bb60 2c3e 960e 59be 7f4e 93be 1253 983e
000000b0: 786b edbd 1f63 783e 2180 843e d3d4 993c
000000c0: 80eb 3cbe cb2f bf3e 0331 8c3e a7ab a13d
000000d0: 98ce 49be 702a 86be 7132 29be 7b06 6bbe
000000e0: 5bf5 f43c 6ffc 823d 7e59 83be c63e babd
000000f0: d911 b93e 7774 40be cba0 24bd e031 5abe
00000100: 3d6e 9b3d 8254 cabd 41c1 853e 5fdc 78be
00000110: e8ba 6f3e 981c 8f3e b2c1 33be f698 7c3e
00000120: 4111 2dbc 9ce0 b13a 8c3d c1bd 9aa4 f0bd
00000130: 3eff 1e3d 95a0 0abe 3970 9ebc 84a0 9c3d
00000140: 3c2b 043e 5776 1c3e 0890 44be 60fa d73c
00000150: 57f7 303e d2a1 5c3d 142d c23e b782 ab3e
00000160: 9c1d f83b 177d 20bc 2ef2 f33c 195d 613b
00000170: 8dbf 7d3e 4e07 2f3e 0c9c a53d af60 b3bd
00000180: 0545 323e e58a 8ebe 466c 9b3e e216 a63e
00000190: 94c8 79be 28cd 4e3e 65ee 773d 9138 0dbe
000001a0: 1247 45be 866e a73d db4a bdbc 58b7 f3bd
000001b0: b22e c03d 5056 2ebe 7a1b ab3d 85e2 72be
000001c0: 1ef3 c13e ebe0 3c3e 8046 453c 0123 84bd
000001d0: ee78 a7be b64b ecbd 73b5 c23d 524c a6bd
000001e0: 7098 24be 0424 38be 8e4e 8e3e 897a 033d
000001f0: 47ef 8bbe 1e58 23be a505 91be 1d0c a83e
00000200: 39f8 e2bc ee8c 203e d939 fe3d cad8 893e
00000210: 220a 68be a19a a33c 587d 9dbe 17da 363e
00000220: bb11 a43d a0fd b6bd 01ec 7a3d 8b10 583e
00000230: bac8 f43d f928 4dbe 12a0 3d3e 3e87 8fbd
00000240: 04ec ac3e e7cd 28bb 2fdb 4bbe 769a b43d
00000250: 9f94 7ebd 9f3d 5e3e e9a2 19be ed02 8b3e
00000260: e133 9bbc 93a4 123b 37cf 7f3d 46f6 31be
00000270: e4f4 2b3e 5876 5dbd 9317 acbd 585b 0dbe
00000280: c463 2dbd 37d0 643d 97e0 61be 468d b33e
00000290: cf3b a73e a356 b33d 9ecf 91bd dc93 a03e
000002a0: b3d5 a9be 55d6 7d3c 3238 0b3e 6473 413e
000002b0: 108c 3cbe 0d00 9bbe 673d ffbd bf63 af3e
000002c0: 2ae7 34be 1fa0 7c3e 3e51 b63e 6566 a2bd
000002d0: 5524 863d b050 59be 99c7 45be 4816 4b3d
000002e0: 8a12 55bd 47ca 8cbe 7c65 d13c 99d3 fdbd
000002f0: 0b96 733b 6e4a c63c c80c 29be 7fda 383e
00000300: 81f9 393e f45c c33e de29 ba3c db67 323e
00000310: b7f8 fc3c f277 c6bd f227 a43e b59c c0be
00000320: f2df b43d 805e 2d3d 6ad8 0f3c 0392 393e
00000330: 8a2b 283c 0692 b0bd ad86 4e3d ce61 c13e
00000340: ca13 1ebc b860 6e3e 167f 33bd 0e3b 783e
00000350: 1ba1 123e 00f2 8ebd ac49 b03e 530b 683c
00000360: 1825 9abd 2949 d7bc 2706 2b3e a509 8a3d
00000370: be89 963e 1731 5f3e fabf 43be 267c b03d
00000380: afa2 313e 25b5 4cbe 9b83 75be 2b04 563e
00000390: c6fd ae3e 3c4b 30be 954c 743e f44e 1d3e
000003a0: 4ebd 053e 6fe4 7dbd 53eb 963e 72f9 74bd
000003b0: 4778 9fbe fdbb 8f3e dd33 a53e ca0c 3ebe
000003c0: 24b2 c63d 2b9b 99bd abee d93c 45f0 fbbb
000003d0: 48a5 573e 2a6a ba3e 6c20 3fbe 5390 8fbd
000003e0: 5c6a 8c3e e076 813e 66d8 763e a31d 073e
000003f0: b6da 303d b8b6 883e 8cfc 3d3e 4396 c83d

linear2.weight f4 [3, 256]
0.0036794117 0.14268237 -0.038862303 -0.16491345 -0.08964974 -0.13457446 0.08460325 0.050479818
-0.06674662 -0.010595745 -0.111877464 -0.005893656 0.0557534 -0.07255114 -0.0048670755 -0.053899076
0.07424915 -0.081491776 -0.05807112 -0.039450888 -0.0016282228 0.023439283 -0.010226914 0.09533035
-0.09928904 0.008999454 -0.14400057 0.109426774 -0.086524166 -0.07925499 -0.12014355 0.03731069
0.0083224885 0.00909978 -0.07267772 0.061510295 -0.06779706 -0.11031159 -0.079614796 0.013252385
-0.024162548 0.02731955 -0.030494424 -0.1459496 -0.0022453708 -0.09795198 -0.113110915 -0.1443049
-0.05062049 -0.072675355 -0.09535277 -0.07850291 0.007186746 -0.00417828 0.10183587 -0.037398506
-0.09861338 0.010651995 -0.0015071449 -0.1380203 -0.10965373 -0.016881412 0.043372937 -0.09516339
-0.08106948 0.04824084 -0.12101066 0.0029166793 -0.037119955 -0.06453814 -0.0039125774 -0.049871266
-0.09885592 0.044712175 0.0831153 0.0560083 -0.034745228 0.11315422 -0.14560781 0.18062772
-0.03211531 -0.05892229 -0.043096177 0.0340062 -0.08892107 -0.061378784 0.052576657 -0.08996591
-0.05890307 -0.036313295 -0.044676952 -0.042371247 -0.110779725 0.073807895 -0.017634613 -0.018672755
-0.08255025 -0.044803783 -0.12598518 -0.027682703 -0.073395714 -0.0849431 -0.0628476 -0.11728453
-0.086442284 0.09504046 -0.12412193 -0.1331549 -0.10481124 -0.041563503 -0.018431533 0.02567823
-0.11130829 -0.122228906 0.00045961142 0.11550736 -0.04560358 -0.06582222 -0.12199196 -0.031011464
0.06262334 0.053201023 -0.10238516 -0.10564634 0.06220235 -0.09886999 0.06080074 0.00013877131
-0.010047261 0.017633725 0.04340677 -0.100086994 0.008873955 -0.02550596 0.028077314 -0.12854141
-0.124815874 -0.039994985 -0.020186977 0.04689871 0.041536473 0.033494893 -0.011162993 -0.11002806
0.08378614 -0.07243824 -0.038273577 -0.09836228 -0.08497144 0.068820104 -0.04875331 -0.12481731
-0.012585954 0.13688104 -0.10471131 -0.031334262 -0.07560242 -0.10395859 -0.05209152 -0.06502052
-0.018758584 -0.104612134 0.021096576 -0.10992994 0.00204261 -0.04189485 -0.11903657 -0.05016102
-0.016413677 -0.08895282 -0.04758553 0.02202026 -0.00010663739 0.06159225 -0.06377259 -0.118371114
0.0843237 0.023752393 -0.064863525 -0.09655476 -0.0423117 0.05438821 -0.099209584 0.041398063
-0.04006252 -0.025129052 -0.0058682156 -0.06408824 -0.027874121 0.040015206 -0.0787931 0.053016774
0.041499335 -0.11084313 -0.049025837 -0.032764062 -0.091863774 -0.045712706 -0.116278306 -0.05221361
0.011755129 -0.13958564 -0.02941168 -0.05627389 -0.04372273 -0.028757215 -0.1306515 -0.058129974
-0.02796358 -0.12049069 -0.12243189 0.086321 0.013354084 -0.083012156 -0.14487612 -0.06596013
-0.020820102 -0.017755786 -0.032961424 0.04284743 -0.0916723 0.09549423 0.01806906 -0.072935395
-0.07953608 -0.026036454 0.050949514 0.042940915 -0.047633797 0.062150076 -0.112163424 -0.035699803
0.043426387 -0.07938184 -0.003777498 0.014337315 0.003785822 -0.05313838 -0.0067255236 -0.014918217
-0.026948877 0.020838095 -0.15226711 -0.0028642225 -0.017382698 -0.08722915 -0.038974866 0.0220896
-0.10194222 -0.07566035 -0.06880508 -0.030668858 -0.03992858 -0.024687069 -0.08829511 0.021579674
00000000: 4922 713b 541b 123e 142e 1fbd 12df 28be
00000010: 489a b7bd e3cd 09be 7844 ad3d edc3 4e3d
00000020: 74b2 88bd c799 2dbc 0320 e5bd 921f c1bb
00000030: ad5d 643d b195 94bd fd7b 9fbb 47c5 5cbd
00000040: f00f 983d 29e5 a6bd fcdb 6dbd 4197 21bd
00000050: 176a d5ba bd03 c03c c98e 27bc 8f3c c33d
00000060: 0d58 cbbd 7272 133c e374 13be 251b e03d
00000070: 9533 b1bd 7150 a2bd d20d f6bd 18d3 183d
00000080: 0c5b 083c 3e17 153c 0ed8 94bd 38f2 7b3d
00000090: 2fd9 8abd 0beb e1bd 150d a3bd 8820 593c
000000a0: 89f0 c5bc 40cd df3c 71cf f9bc d073 15be
000000b0: 1227 13bb 0c9b c8bd b2a6 e7bd aac4 13be
000000c0: 6e57 4fbd d1d6 94bd 5048 c3bd 22c6 a0bd
000000d0: cc7e eb3b f4e9 88bb 538f d03d 2d2f 19bd
000000e0: d0f5 c9bd b585 2e3c 648b c5ba 3255 0dbe
000000f0: 2392 e0bd e34a 8abc d2a7 313d 06e5 c2bd
00000100: c107 a6bd 3098 453d 70d4 f7bd c225 3f3b
00000110: 180b 18bd 932c 84bd 1435 80bb d045 4cbd
00000120: f974 cabd 1d24 373d 5b38 aa3d f668 653d
00000130: 0351 0ebd 66bd e73d 371a 15be 79f6 383e
00000140: 588b 03bd 8058 71bd 9e85 30bd 164a 0b3d
00000150: 401c b6bd 5268 7bbd 9f5a 573d 0c40 b8bd
00000160: 5844 71bd 40bd 14bd 2eff 36bd 798d 2dbd
00000170: 7be0 e2bd 9828 973d 7776 90bc 9bf7 98bc
00000180: 1b10 a9bd 2c84 37bd 4202 01be d6c6 e2bc
00000190: 7e50 96bd a6f6 adbd 3eb6 80bd df32 f0bd
000001a0: a708 b1bd 93a4 c23d a333 febd c259 08be
000001b0: 47a7 d6bd 7e3e 2abd bafd 96bc 275b d23c
000001c0: 9af5 e3bd 2653 fabd 00f8 f039 1f8f ec3d
000001d0: d2ca 3abd cdcd 86bd ecd6 f9bd c10b febc
000001e0: aa40 803d 51e9 593d 50af d1bd 1c5d d8bd
000001f0: e4c7 7e3d 597c cabd 320a 793d 2483 1139
00000200: 449d 24bc 9a74 903c 4ccb 313d 69fa ccbd
00000210: 1164 113c e0f1 d0bc 6502 e63c 5ca0 03be
00000220: 779f ffbd c8d1 23bd 295f a5bc dd18 403d
00000230: 2622 2a3d f131 093d fce4 36bc 6456 e1bd
00000240: 1198 ab3d 805a 94bd c1c4 1cbd 2a72 c9bd
00000250: 8205 aebd 8ef1 8c3d 8db1 47bd 38a0 ffbd
00000260: 5135 4ebc 8b2a 0c3e e272 d6bd 5b58 00bd
00000270: 71d5 9abd 3ee8 d4bd eb5d 55bd 7a29 85bd
00000280: 9aab 99bc e33e d6bd bad2 ac3c f322 e1bd
00000290: 4fdd 053b ef99 2bbd 72c9 f3bd a475 4dbd
000002a0: fa75 86bc e52c b6bd 0be9 42bd d563 b43c
000002b0: 83a2 dfb8 2848 7c3d 349b 82bd 8e6c f2bd
000002c0: e7b1 ac3d 6194 c23c 2bd7 84bd 81be c5bd
000002d0: 084f 2dbd 2cc6 5e3d 652e cbbd 0491 293d
000002e0: 9918 24bd 71db cdbc 294a c0bb b240 83bd
000002f0: 4558 e4bc fce6 233d 475e a1bd 1e28 593d
00000300: 35fb 293d b901 e3bd 51cf 48bd 9c33 06bd
00000310: 1323 bcbd 3f3d 3bbd 5223 eebd f0dd 55bd
00000320: 9698 403c 8aef 0ebe c3f0 f0bc 737f 66bd
00000330: 9b16 33bd 4094 ebbc 82c9 05be b219 6ebd
00000340: e113 e5bc d3c3 f6bd 92bd fabd 10c9 b03d
00000350: 17cb 5a3c 4702 aabd 685a 14be 1b16 87bd
00000360: eb8e aabc 9574 91bc 8f02 07bd c980 2f3d
00000370: b0be bbbd 7b92 c33d 9105 943c 275f 95bd
00000380: d0e3 a2bd 674a d5bc 70b0 503d d0e2 2f3d
00000390: a81b 43bd 1491 7e3d f0b5 e5bd f539 12bd
000003a0: dedf 313d f292 a2bd e68f 77bb 0fe7 6a3c
000003b0: 8e1b 783b a1a7 59bd c861 dcbb 8a6b 74bc
000003c0: e4c3 dcbc a7b4 aa3c e9eb 1bbe aeb5 3bbb
000003d0: 2966 8ebc 32a5 b2bd 1ca4 1fbd 40f5 b43c
000003e0: 15c7 d0bd d0f3 9abd aee9 8cbd 423d fbbc
000003f0: 278c 23bd 893c cabc 11d4 b4bd dbc7 b03c

linear2.bias f4 [3]
-0.09820004 -0.05818203 -0.052087
00000000: 1a1d c9bd 4850 6ebd 2e59 55bd
